<?xml version="1.0" ?>
<net name="model" version="10">
	<layers>
		<layer id="0" name="Placeholder" type="Parameter" version="opset1">
			<data element_type="f32" shape="1,3,416,416"/>
			<output>
				<port id="0" precision="FP32">
					<dim>1</dim>
					<dim>3</dim>
					<dim>416</dim>
					<dim>416</dim>
				</port>
			</output>
		</layer>
		<layer id="1" name="layer1_conv/weights/Output_0/Data__const" type="Const" version="opset1">
			<data element_type="f32" offset="0" shape="16,3,3,3" size="1728"/>
			<output>
				<port id="1" precision="FP32">
					<dim>16</dim>
					<dim>3</dim>
					<dim>3</dim>
					<dim>3</dim>
				</port>
			</output>
		</layer>
		<layer id="2" name="layer1_conv/Conv2D" type="Convolution" version="opset1">
			<data dilations="1,1" output_padding="0,0" pads_begin="1,1" pads_end="1,1" strides="1,1"/>
			<input>
				<port id="0">
					<dim>1</dim>
					<dim>3</dim>
					<dim>416</dim>
					<dim>416</dim>
				</port>
				<port id="1">
					<dim>16</dim>
					<dim>3</dim>
					<dim>3</dim>
					<dim>3</dim>
				</port>
			</input>
			<output>
				<port id="2" precision="FP32">
					<dim>1</dim>
					<dim>16</dim>
					<dim>416</dim>
					<dim>416</dim>
				</port>
			</output>
		</layer>
		<layer id="3" name="layer1_conv/biases/Output_0/Data_/copy_const" type="Const" version="opset1">
			<data element_type="f32" offset="1728" shape="1,16,1,1" size="64"/>
			<output>
				<port id="1" precision="FP32">
					<dim>1</dim>
					<dim>16</dim>
					<dim>1</dim>
					<dim>1</dim>
				</port>
			</output>
		</layer>
		<layer id="4" name="layer1_conv/BiasAdd/Add" type="Add" version="opset1">
			<input>
				<port id="0">
					<dim>1</dim>
					<dim>16</dim>
					<dim>416</dim>
					<dim>416</dim>
				</port>
				<port id="1">
					<dim>1</dim>
					<dim>16</dim>
					<dim>1</dim>
					<dim>1</dim>
				</port>
			</input>
			<output>
				<port id="2" precision="FP32">
					<dim>1</dim>
					<dim>16</dim>
					<dim>416</dim>
					<dim>416</dim>
				</port>
			</output>
		</layer>
		<layer id="5" name="layer1_leaky1891/Cast_12350_const" type="Const" version="opset1">
			<data element_type="f32" offset="1792" shape="1" size="4"/>
			<output>
				<port id="1" precision="FP32">
					<dim>1</dim>
				</port>
			</output>
		</layer>
		<layer id="6" name="layer1_leaky1891" type="PReLU" version="opset1">
			<input>
				<port id="0">
					<dim>1</dim>
					<dim>16</dim>
					<dim>416</dim>
					<dim>416</dim>
				</port>
				<port id="1">
					<dim>1</dim>
				</port>
			</input>
			<output>
				<port id="2" precision="FP32">
					<dim>1</dim>
					<dim>16</dim>
					<dim>416</dim>
					<dim>416</dim>
				</port>
			</output>
		</layer>
		<layer id="7" name="pool1" type="MaxPool" version="opset1">
			<data auto_pad="same_upper" kernel="2,2" pads_begin="0,0" pads_end="0,0" strides="2,2"/>
			<input>
				<port id="0">
					<dim>1</dim>
					<dim>16</dim>
					<dim>416</dim>
					<dim>416</dim>
				</port>
			</input>
			<output>
				<port id="1" precision="FP32">
					<dim>1</dim>
					<dim>16</dim>
					<dim>208</dim>
					<dim>208</dim>
				</port>
			</output>
		</layer>
		<layer id="8" name="layer2_conv/weights/Output_0/Data__const" type="Const" version="opset1">
			<data element_type="f32" offset="1796" shape="32,16,3,3" size="18432"/>
			<output>
				<port id="1" precision="FP32">
					<dim>32</dim>
					<dim>16</dim>
					<dim>3</dim>
					<dim>3</dim>
				</port>
			</output>
		</layer>
		<layer id="9" name="layer2_conv/Conv2D" type="Convolution" version="opset1">
			<data dilations="1,1" output_padding="0,0" pads_begin="1,1" pads_end="1,1" strides="1,1"/>
			<input>
				<port id="0">
					<dim>1</dim>
					<dim>16</dim>
					<dim>208</dim>
					<dim>208</dim>
				</port>
				<port id="1">
					<dim>32</dim>
					<dim>16</dim>
					<dim>3</dim>
					<dim>3</dim>
				</port>
			</input>
			<output>
				<port id="2" precision="FP32">
					<dim>1</dim>
					<dim>32</dim>
					<dim>208</dim>
					<dim>208</dim>
				</port>
			</output>
		</layer>
		<layer id="10" name="layer2_conv/biases/Output_0/Data_/copy_const" type="Const" version="opset1">
			<data element_type="f32" offset="20228" shape="1,32,1,1" size="128"/>
			<output>
				<port id="1" precision="FP32">
					<dim>1</dim>
					<dim>32</dim>
					<dim>1</dim>
					<dim>1</dim>
				</port>
			</output>
		</layer>
		<layer id="11" name="layer2_conv/BiasAdd/Add" type="Add" version="opset1">
			<input>
				<port id="0">
					<dim>1</dim>
					<dim>32</dim>
					<dim>208</dim>
					<dim>208</dim>
				</port>
				<port id="1">
					<dim>1</dim>
					<dim>32</dim>
					<dim>1</dim>
					<dim>1</dim>
				</port>
			</input>
			<output>
				<port id="2" precision="FP32">
					<dim>1</dim>
					<dim>32</dim>
					<dim>208</dim>
					<dim>208</dim>
				</port>
			</output>
		</layer>
		<layer id="12" name="layer2_leaky1879/Cast_12346_const" type="Const" version="opset1">
			<data element_type="f32" offset="1792" shape="1" size="4"/>
			<output>
				<port id="1" precision="FP32">
					<dim>1</dim>
				</port>
			</output>
		</layer>
		<layer id="13" name="layer2_leaky1879" type="PReLU" version="opset1">
			<input>
				<port id="0">
					<dim>1</dim>
					<dim>32</dim>
					<dim>208</dim>
					<dim>208</dim>
				</port>
				<port id="1">
					<dim>1</dim>
				</port>
			</input>
			<output>
				<port id="2" precision="FP32">
					<dim>1</dim>
					<dim>32</dim>
					<dim>208</dim>
					<dim>208</dim>
				</port>
			</output>
		</layer>
		<layer id="14" name="pool2" type="MaxPool" version="opset1">
			<data auto_pad="same_upper" kernel="2,2" pads_begin="0,0" pads_end="0,0" strides="2,2"/>
			<input>
				<port id="0">
					<dim>1</dim>
					<dim>32</dim>
					<dim>208</dim>
					<dim>208</dim>
				</port>
			</input>
			<output>
				<port id="1" precision="FP32">
					<dim>1</dim>
					<dim>32</dim>
					<dim>104</dim>
					<dim>104</dim>
				</port>
			</output>
		</layer>
		<layer id="15" name="layer3_conv/weights/Output_0/Data__const" type="Const" version="opset1">
			<data element_type="f32" offset="20356" shape="64,32,3,3" size="73728"/>
			<output>
				<port id="1" precision="FP32">
					<dim>64</dim>
					<dim>32</dim>
					<dim>3</dim>
					<dim>3</dim>
				</port>
			</output>
		</layer>
		<layer id="16" name="layer3_conv/Conv2D" type="Convolution" version="opset1">
			<data dilations="1,1" output_padding="0,0" pads_begin="1,1" pads_end="1,1" strides="1,1"/>
			<input>
				<port id="0">
					<dim>1</dim>
					<dim>32</dim>
					<dim>104</dim>
					<dim>104</dim>
				</port>
				<port id="1">
					<dim>64</dim>
					<dim>32</dim>
					<dim>3</dim>
					<dim>3</dim>
				</port>
			</input>
			<output>
				<port id="2" precision="FP32">
					<dim>1</dim>
					<dim>64</dim>
					<dim>104</dim>
					<dim>104</dim>
				</port>
			</output>
		</layer>
		<layer id="17" name="layer3_conv/biases/Output_0/Data_/copy_const" type="Const" version="opset1">
			<data element_type="f32" offset="94084" shape="1,64,1,1" size="256"/>
			<output>
				<port id="1" precision="FP32">
					<dim>1</dim>
					<dim>64</dim>
					<dim>1</dim>
					<dim>1</dim>
				</port>
			</output>
		</layer>
		<layer id="18" name="layer3_conv/BiasAdd/Add" type="Add" version="opset1">
			<input>
				<port id="0">
					<dim>1</dim>
					<dim>64</dim>
					<dim>104</dim>
					<dim>104</dim>
				</port>
				<port id="1">
					<dim>1</dim>
					<dim>64</dim>
					<dim>1</dim>
					<dim>1</dim>
				</port>
			</input>
			<output>
				<port id="2" precision="FP32">
					<dim>1</dim>
					<dim>64</dim>
					<dim>104</dim>
					<dim>104</dim>
				</port>
			</output>
		</layer>
		<layer id="19" name="layer3_leaky1895/Cast_12358_const" type="Const" version="opset1">
			<data element_type="f32" offset="1792" shape="1" size="4"/>
			<output>
				<port id="1" precision="FP32">
					<dim>1</dim>
				</port>
			</output>
		</layer>
		<layer id="20" name="layer3_leaky1895" type="PReLU" version="opset1">
			<input>
				<port id="0">
					<dim>1</dim>
					<dim>64</dim>
					<dim>104</dim>
					<dim>104</dim>
				</port>
				<port id="1">
					<dim>1</dim>
				</port>
			</input>
			<output>
				<port id="2" precision="FP32">
					<dim>1</dim>
					<dim>64</dim>
					<dim>104</dim>
					<dim>104</dim>
				</port>
			</output>
		</layer>
		<layer id="21" name="pool3" type="MaxPool" version="opset1">
			<data auto_pad="same_upper" kernel="2,2" pads_begin="0,0" pads_end="0,0" strides="2,2"/>
			<input>
				<port id="0">
					<dim>1</dim>
					<dim>64</dim>
					<dim>104</dim>
					<dim>104</dim>
				</port>
			</input>
			<output>
				<port id="1" precision="FP32">
					<dim>1</dim>
					<dim>64</dim>
					<dim>52</dim>
					<dim>52</dim>
				</port>
			</output>
		</layer>
		<layer id="22" name="layer4_conv/weights/Output_0/Data__const" type="Const" version="opset1">
			<data element_type="f32" offset="94340" shape="128,64,3,3" size="294912"/>
			<output>
				<port id="1" precision="FP32">
					<dim>128</dim>
					<dim>64</dim>
					<dim>3</dim>
					<dim>3</dim>
				</port>
			</output>
		</layer>
		<layer id="23" name="layer4_conv/Conv2D" type="Convolution" version="opset1">
			<data dilations="1,1" output_padding="0,0" pads_begin="1,1" pads_end="1,1" strides="1,1"/>
			<input>
				<port id="0">
					<dim>1</dim>
					<dim>64</dim>
					<dim>52</dim>
					<dim>52</dim>
				</port>
				<port id="1">
					<dim>128</dim>
					<dim>64</dim>
					<dim>3</dim>
					<dim>3</dim>
				</port>
			</input>
			<output>
				<port id="2" precision="FP32">
					<dim>1</dim>
					<dim>128</dim>
					<dim>52</dim>
					<dim>52</dim>
				</port>
			</output>
		</layer>
		<layer id="24" name="layer4_conv/biases/Output_0/Data_/copy_const" type="Const" version="opset1">
			<data element_type="f32" offset="389252" shape="1,128,1,1" size="512"/>
			<output>
				<port id="1" precision="FP32">
					<dim>1</dim>
					<dim>128</dim>
					<dim>1</dim>
					<dim>1</dim>
				</port>
			</output>
		</layer>
		<layer id="25" name="layer4_conv/BiasAdd/Add" type="Add" version="opset1">
			<input>
				<port id="0">
					<dim>1</dim>
					<dim>128</dim>
					<dim>52</dim>
					<dim>52</dim>
				</port>
				<port id="1">
					<dim>1</dim>
					<dim>128</dim>
					<dim>1</dim>
					<dim>1</dim>
				</port>
			</input>
			<output>
				<port id="2" precision="FP32">
					<dim>1</dim>
					<dim>128</dim>
					<dim>52</dim>
					<dim>52</dim>
				</port>
			</output>
		</layer>
		<layer id="26" name="layer4_leaky1871/Cast_12356_const" type="Const" version="opset1">
			<data element_type="f32" offset="1792" shape="1" size="4"/>
			<output>
				<port id="1" precision="FP32">
					<dim>1</dim>
				</port>
			</output>
		</layer>
		<layer id="27" name="layer4_leaky1871" type="PReLU" version="opset1">
			<input>
				<port id="0">
					<dim>1</dim>
					<dim>128</dim>
					<dim>52</dim>
					<dim>52</dim>
				</port>
				<port id="1">
					<dim>1</dim>
				</port>
			</input>
			<output>
				<port id="2" precision="FP32">
					<dim>1</dim>
					<dim>128</dim>
					<dim>52</dim>
					<dim>52</dim>
				</port>
			</output>
		</layer>
		<layer id="28" name="pool4" type="MaxPool" version="opset1">
			<data auto_pad="same_upper" kernel="2,2" pads_begin="0,0" pads_end="0,0" strides="2,2"/>
			<input>
				<port id="0">
					<dim>1</dim>
					<dim>128</dim>
					<dim>52</dim>
					<dim>52</dim>
				</port>
			</input>
			<output>
				<port id="1" precision="FP32">
					<dim>1</dim>
					<dim>128</dim>
					<dim>26</dim>
					<dim>26</dim>
				</port>
			</output>
		</layer>
		<layer id="29" name="layer5_conv/weights/Output_0/Data__const" type="Const" version="opset1">
			<data element_type="f32" offset="389764" shape="256,128,3,3" size="1179648"/>
			<output>
				<port id="1" precision="FP32">
					<dim>256</dim>
					<dim>128</dim>
					<dim>3</dim>
					<dim>3</dim>
				</port>
			</output>
		</layer>
		<layer id="30" name="layer5_conv/Conv2D" type="Convolution" version="opset1">
			<data dilations="1,1" output_padding="0,0" pads_begin="1,1" pads_end="1,1" strides="1,1"/>
			<input>
				<port id="0">
					<dim>1</dim>
					<dim>128</dim>
					<dim>26</dim>
					<dim>26</dim>
				</port>
				<port id="1">
					<dim>256</dim>
					<dim>128</dim>
					<dim>3</dim>
					<dim>3</dim>
				</port>
			</input>
			<output>
				<port id="2" precision="FP32">
					<dim>1</dim>
					<dim>256</dim>
					<dim>26</dim>
					<dim>26</dim>
				</port>
			</output>
		</layer>
		<layer id="31" name="layer5_conv/biases/Output_0/Data_/copy_const" type="Const" version="opset1">
			<data element_type="f32" offset="1569412" shape="1,256,1,1" size="1024"/>
			<output>
				<port id="1" precision="FP32">
					<dim>1</dim>
					<dim>256</dim>
					<dim>1</dim>
					<dim>1</dim>
				</port>
			</output>
		</layer>
		<layer id="32" name="layer5_conv/BiasAdd/Add" type="Add" version="opset1">
			<input>
				<port id="0">
					<dim>1</dim>
					<dim>256</dim>
					<dim>26</dim>
					<dim>26</dim>
				</port>
				<port id="1">
					<dim>1</dim>
					<dim>256</dim>
					<dim>1</dim>
					<dim>1</dim>
				</port>
			</input>
			<output>
				<port id="2" precision="FP32">
					<dim>1</dim>
					<dim>256</dim>
					<dim>26</dim>
					<dim>26</dim>
				</port>
			</output>
		</layer>
		<layer id="33" name="layer5_leaky1899/Cast_12348_const" type="Const" version="opset1">
			<data element_type="f32" offset="1792" shape="1" size="4"/>
			<output>
				<port id="1" precision="FP32">
					<dim>1</dim>
				</port>
			</output>
		</layer>
		<layer id="34" name="layer5_leaky1899" type="PReLU" version="opset1">
			<input>
				<port id="0">
					<dim>1</dim>
					<dim>256</dim>
					<dim>26</dim>
					<dim>26</dim>
				</port>
				<port id="1">
					<dim>1</dim>
				</port>
			</input>
			<output>
				<port id="2" precision="FP32">
					<dim>1</dim>
					<dim>256</dim>
					<dim>26</dim>
					<dim>26</dim>
				</port>
			</output>
		</layer>
		<layer id="35" name="pool5" type="MaxPool" version="opset1">
			<data auto_pad="same_upper" kernel="2,2" pads_begin="0,0" pads_end="0,0" strides="2,2"/>
			<input>
				<port id="0">
					<dim>1</dim>
					<dim>256</dim>
					<dim>26</dim>
					<dim>26</dim>
				</port>
			</input>
			<output>
				<port id="1" precision="FP32">
					<dim>1</dim>
					<dim>256</dim>
					<dim>13</dim>
					<dim>13</dim>
				</port>
			</output>
		</layer>
		<layer id="36" name="layer6_conv/weights/Output_0/Data__const" type="Const" version="opset1">
			<data element_type="f32" offset="1570436" shape="512,256,3,3" size="4718592"/>
			<output>
				<port id="1" precision="FP32">
					<dim>512</dim>
					<dim>256</dim>
					<dim>3</dim>
					<dim>3</dim>
				</port>
			</output>
		</layer>
		<layer id="37" name="layer6_conv/Conv2D" type="Convolution" version="opset1">
			<data dilations="1,1" output_padding="0,0" pads_begin="1,1" pads_end="1,1" strides="1,1"/>
			<input>
				<port id="0">
					<dim>1</dim>
					<dim>256</dim>
					<dim>13</dim>
					<dim>13</dim>
				</port>
				<port id="1">
					<dim>512</dim>
					<dim>256</dim>
					<dim>3</dim>
					<dim>3</dim>
				</port>
			</input>
			<output>
				<port id="2" precision="FP32">
					<dim>1</dim>
					<dim>512</dim>
					<dim>13</dim>
					<dim>13</dim>
				</port>
			</output>
		</layer>
		<layer id="38" name="layer6_conv/biases/Output_0/Data_/copy_const" type="Const" version="opset1">
			<data element_type="f32" offset="6289028" shape="1,512,1,1" size="2048"/>
			<output>
				<port id="1" precision="FP32">
					<dim>1</dim>
					<dim>512</dim>
					<dim>1</dim>
					<dim>1</dim>
				</port>
			</output>
		</layer>
		<layer id="39" name="layer6_conv/BiasAdd/Add" type="Add" version="opset1">
			<input>
				<port id="0">
					<dim>1</dim>
					<dim>512</dim>
					<dim>13</dim>
					<dim>13</dim>
				</port>
				<port id="1">
					<dim>1</dim>
					<dim>512</dim>
					<dim>1</dim>
					<dim>1</dim>
				</port>
			</input>
			<output>
				<port id="2" precision="FP32">
					<dim>1</dim>
					<dim>512</dim>
					<dim>13</dim>
					<dim>13</dim>
				</port>
			</output>
		</layer>
		<layer id="40" name="layer6_leaky1883/Cast_12360_const" type="Const" version="opset1">
			<data element_type="f32" offset="1792" shape="1" size="4"/>
			<output>
				<port id="1" precision="FP32">
					<dim>1</dim>
				</port>
			</output>
		</layer>
		<layer id="41" name="layer6_leaky1883" type="PReLU" version="opset1">
			<input>
				<port id="0">
					<dim>1</dim>
					<dim>512</dim>
					<dim>13</dim>
					<dim>13</dim>
				</port>
				<port id="1">
					<dim>1</dim>
				</port>
			</input>
			<output>
				<port id="2" precision="FP32">
					<dim>1</dim>
					<dim>512</dim>
					<dim>13</dim>
					<dim>13</dim>
				</port>
			</output>
		</layer>
		<layer id="42" name="pool6" type="MaxPool" version="opset1">
			<data auto_pad="same_upper" kernel="2,2" pads_begin="0,0" pads_end="1,1" strides="1,1"/>
			<input>
				<port id="0">
					<dim>1</dim>
					<dim>512</dim>
					<dim>13</dim>
					<dim>13</dim>
				</port>
			</input>
			<output>
				<port id="1" precision="FP32">
					<dim>1</dim>
					<dim>512</dim>
					<dim>13</dim>
					<dim>13</dim>
				</port>
			</output>
		</layer>
		<layer id="43" name="layer7_conv/weights/Output_0/Data__const" type="Const" version="opset1">
			<data element_type="f32" offset="6291076" shape="1024,512,3,3" size="18874368"/>
			<output>
				<port id="1" precision="FP32">
					<dim>1024</dim>
					<dim>512</dim>
					<dim>3</dim>
					<dim>3</dim>
				</port>
			</output>
		</layer>
		<layer id="44" name="layer7_conv/Conv2D" type="Convolution" version="opset1">
			<data dilations="1,1" output_padding="0,0" pads_begin="1,1" pads_end="1,1" strides="1,1"/>
			<input>
				<port id="0">
					<dim>1</dim>
					<dim>512</dim>
					<dim>13</dim>
					<dim>13</dim>
				</port>
				<port id="1">
					<dim>1024</dim>
					<dim>512</dim>
					<dim>3</dim>
					<dim>3</dim>
				</port>
			</input>
			<output>
				<port id="2" precision="FP32">
					<dim>1</dim>
					<dim>1024</dim>
					<dim>13</dim>
					<dim>13</dim>
				</port>
			</output>
		</layer>
		<layer id="45" name="layer7_conv/biases/Output_0/Data_/copy_const" type="Const" version="opset1">
			<data element_type="f32" offset="25165444" shape="1,1024,1,1" size="4096"/>
			<output>
				<port id="1" precision="FP32">
					<dim>1</dim>
					<dim>1024</dim>
					<dim>1</dim>
					<dim>1</dim>
				</port>
			</output>
		</layer>
		<layer id="46" name="layer7_conv/BiasAdd/Add" type="Add" version="opset1">
			<input>
				<port id="0">
					<dim>1</dim>
					<dim>1024</dim>
					<dim>13</dim>
					<dim>13</dim>
				</port>
				<port id="1">
					<dim>1</dim>
					<dim>1024</dim>
					<dim>1</dim>
					<dim>1</dim>
				</port>
			</input>
			<output>
				<port id="2" precision="FP32">
					<dim>1</dim>
					<dim>1024</dim>
					<dim>13</dim>
					<dim>13</dim>
				</port>
			</output>
		</layer>
		<layer id="47" name="layer7_leaky1875/Cast_12354_const" type="Const" version="opset1">
			<data element_type="f32" offset="1792" shape="1" size="4"/>
			<output>
				<port id="1" precision="FP32">
					<dim>1</dim>
				</port>
			</output>
		</layer>
		<layer id="48" name="layer7_leaky1875" type="PReLU" version="opset1">
			<input>
				<port id="0">
					<dim>1</dim>
					<dim>1024</dim>
					<dim>13</dim>
					<dim>13</dim>
				</port>
				<port id="1">
					<dim>1</dim>
				</port>
			</input>
			<output>
				<port id="2" precision="FP32">
					<dim>1</dim>
					<dim>1024</dim>
					<dim>13</dim>
					<dim>13</dim>
				</port>
			</output>
		</layer>
		<layer id="49" name="layer8_conv/weights/Output_0/Data__const" type="Const" version="opset1">
			<data element_type="f32" offset="25169540" shape="512,1024,3,3" size="18874368"/>
			<output>
				<port id="1" precision="FP32">
					<dim>512</dim>
					<dim>1024</dim>
					<dim>3</dim>
					<dim>3</dim>
				</port>
			</output>
		</layer>
		<layer id="50" name="layer8_conv/Conv2D" type="Convolution" version="opset1">
			<data dilations="1,1" output_padding="0,0" pads_begin="1,1" pads_end="1,1" strides="1,1"/>
			<input>
				<port id="0">
					<dim>1</dim>
					<dim>1024</dim>
					<dim>13</dim>
					<dim>13</dim>
				</port>
				<port id="1">
					<dim>512</dim>
					<dim>1024</dim>
					<dim>3</dim>
					<dim>3</dim>
				</port>
			</input>
			<output>
				<port id="2" precision="FP32">
					<dim>1</dim>
					<dim>512</dim>
					<dim>13</dim>
					<dim>13</dim>
				</port>
			</output>
		</layer>
		<layer id="51" name="layer8_conv/biases/Output_0/Data_/copy_const" type="Const" version="opset1">
			<data element_type="f32" offset="44043908" shape="1,512,1,1" size="2048"/>
			<output>
				<port id="1" precision="FP32">
					<dim>1</dim>
					<dim>512</dim>
					<dim>1</dim>
					<dim>1</dim>
				</port>
			</output>
		</layer>
		<layer id="52" name="layer8_conv/BiasAdd/Add" type="Add" version="opset1">
			<input>
				<port id="0">
					<dim>1</dim>
					<dim>512</dim>
					<dim>13</dim>
					<dim>13</dim>
				</port>
				<port id="1">
					<dim>1</dim>
					<dim>512</dim>
					<dim>1</dim>
					<dim>1</dim>
				</port>
			</input>
			<output>
				<port id="2" precision="FP32">
					<dim>1</dim>
					<dim>512</dim>
					<dim>13</dim>
					<dim>13</dim>
				</port>
			</output>
		</layer>
		<layer id="53" name="layer8_leaky1887/Cast_12352_const" type="Const" version="opset1">
			<data element_type="f32" offset="1792" shape="1" size="4"/>
			<output>
				<port id="1" precision="FP32">
					<dim>1</dim>
				</port>
			</output>
		</layer>
		<layer id="54" name="layer8_leaky1887" type="PReLU" version="opset1">
			<input>
				<port id="0">
					<dim>1</dim>
					<dim>512</dim>
					<dim>13</dim>
					<dim>13</dim>
				</port>
				<port id="1">
					<dim>1</dim>
				</port>
			</input>
			<output>
				<port id="2" precision="FP32">
					<dim>1</dim>
					<dim>512</dim>
					<dim>13</dim>
					<dim>13</dim>
				</port>
			</output>
		</layer>
		<layer id="55" name="m_outputs0/weights/Output_0/Data__const" type="Const" version="opset1">
			<data element_type="f32" offset="44045956" shape="30,512,1,1" size="61440"/>
			<output>
				<port id="1" precision="FP32">
					<dim>30</dim>
					<dim>512</dim>
					<dim>1</dim>
					<dim>1</dim>
				</port>
			</output>
		</layer>
		<layer id="56" name="m_outputs0/Conv2D" type="Convolution" version="opset1">
			<data auto_pad="same_upper" dilations="1,1" output_padding="0,0" pads_begin="0,0" pads_end="0,0" strides="1,1"/>
			<input>
				<port id="0">
					<dim>1</dim>
					<dim>512</dim>
					<dim>13</dim>
					<dim>13</dim>
				</port>
				<port id="1">
					<dim>30</dim>
					<dim>512</dim>
					<dim>1</dim>
					<dim>1</dim>
				</port>
			</input>
			<output>
				<port id="2" precision="FP32">
					<dim>1</dim>
					<dim>30</dim>
					<dim>13</dim>
					<dim>13</dim>
				</port>
			</output>
		</layer>
		<layer id="57" name="m_outputs0/biases/Output_0/Data_/copy_const" type="Const" version="opset1">
			<data element_type="f32" offset="44107396" shape="1,30,1,1" size="120"/>
			<output>
				<port id="1" precision="FP32">
					<dim>1</dim>
					<dim>30</dim>
					<dim>1</dim>
					<dim>1</dim>
				</port>
			</output>
		</layer>
		<layer id="58" name="m_outputs0/BiasAdd/Add" type="Add" version="opset1">
			<input>
				<port id="0">
					<dim>1</dim>
					<dim>30</dim>
					<dim>13</dim>
					<dim>13</dim>
				</port>
				<port id="1">
					<dim>1</dim>
					<dim>30</dim>
					<dim>1</dim>
					<dim>1</dim>
				</port>
			</input>
			<output>
				<port id="2" precision="FP32">
					<dim>1</dim>
					<dim>30</dim>
					<dim>13</dim>
					<dim>13</dim>
				</port>
			</output>
		</layer>
		<layer id="59" name="model_outputs/sink_port_0" type="Result" version="opset1">
			<input>
				<port id="0">
					<dim>1</dim>
					<dim>30</dim>
					<dim>13</dim>
					<dim>13</dim>
				</port>
			</input>
		</layer>
	</layers>
	<edges>
		<edge from-layer="0" from-port="0" to-layer="2" to-port="0"/>
		<edge from-layer="1" from-port="1" to-layer="2" to-port="1"/>
		<edge from-layer="2" from-port="2" to-layer="4" to-port="0"/>
		<edge from-layer="3" from-port="1" to-layer="4" to-port="1"/>
		<edge from-layer="4" from-port="2" to-layer="6" to-port="0"/>
		<edge from-layer="5" from-port="1" to-layer="6" to-port="1"/>
		<edge from-layer="6" from-port="2" to-layer="7" to-port="0"/>
		<edge from-layer="7" from-port="1" to-layer="9" to-port="0"/>
		<edge from-layer="8" from-port="1" to-layer="9" to-port="1"/>
		<edge from-layer="9" from-port="2" to-layer="11" to-port="0"/>
		<edge from-layer="10" from-port="1" to-layer="11" to-port="1"/>
		<edge from-layer="11" from-port="2" to-layer="13" to-port="0"/>
		<edge from-layer="12" from-port="1" to-layer="13" to-port="1"/>
		<edge from-layer="13" from-port="2" to-layer="14" to-port="0"/>
		<edge from-layer="14" from-port="1" to-layer="16" to-port="0"/>
		<edge from-layer="15" from-port="1" to-layer="16" to-port="1"/>
		<edge from-layer="16" from-port="2" to-layer="18" to-port="0"/>
		<edge from-layer="17" from-port="1" to-layer="18" to-port="1"/>
		<edge from-layer="18" from-port="2" to-layer="20" to-port="0"/>
		<edge from-layer="19" from-port="1" to-layer="20" to-port="1"/>
		<edge from-layer="20" from-port="2" to-layer="21" to-port="0"/>
		<edge from-layer="21" from-port="1" to-layer="23" to-port="0"/>
		<edge from-layer="22" from-port="1" to-layer="23" to-port="1"/>
		<edge from-layer="23" from-port="2" to-layer="25" to-port="0"/>
		<edge from-layer="24" from-port="1" to-layer="25" to-port="1"/>
		<edge from-layer="25" from-port="2" to-layer="27" to-port="0"/>
		<edge from-layer="26" from-port="1" to-layer="27" to-port="1"/>
		<edge from-layer="27" from-port="2" to-layer="28" to-port="0"/>
		<edge from-layer="28" from-port="1" to-layer="30" to-port="0"/>
		<edge from-layer="29" from-port="1" to-layer="30" to-port="1"/>
		<edge from-layer="30" from-port="2" to-layer="32" to-port="0"/>
		<edge from-layer="31" from-port="1" to-layer="32" to-port="1"/>
		<edge from-layer="32" from-port="2" to-layer="34" to-port="0"/>
		<edge from-layer="33" from-port="1" to-layer="34" to-port="1"/>
		<edge from-layer="34" from-port="2" to-layer="35" to-port="0"/>
		<edge from-layer="35" from-port="1" to-layer="37" to-port="0"/>
		<edge from-layer="36" from-port="1" to-layer="37" to-port="1"/>
		<edge from-layer="37" from-port="2" to-layer="39" to-port="0"/>
		<edge from-layer="38" from-port="1" to-layer="39" to-port="1"/>
		<edge from-layer="39" from-port="2" to-layer="41" to-port="0"/>
		<edge from-layer="40" from-port="1" to-layer="41" to-port="1"/>
		<edge from-layer="41" from-port="2" to-layer="42" to-port="0"/>
		<edge from-layer="42" from-port="1" to-layer="44" to-port="0"/>
		<edge from-layer="43" from-port="1" to-layer="44" to-port="1"/>
		<edge from-layer="44" from-port="2" to-layer="46" to-port="0"/>
		<edge from-layer="45" from-port="1" to-layer="46" to-port="1"/>
		<edge from-layer="46" from-port="2" to-layer="48" to-port="0"/>
		<edge from-layer="47" from-port="1" to-layer="48" to-port="1"/>
		<edge from-layer="48" from-port="2" to-layer="50" to-port="0"/>
		<edge from-layer="49" from-port="1" to-layer="50" to-port="1"/>
		<edge from-layer="50" from-port="2" to-layer="52" to-port="0"/>
		<edge from-layer="51" from-port="1" to-layer="52" to-port="1"/>
		<edge from-layer="52" from-port="2" to-layer="54" to-port="0"/>
		<edge from-layer="53" from-port="1" to-layer="54" to-port="1"/>
		<edge from-layer="54" from-port="2" to-layer="56" to-port="0"/>
		<edge from-layer="55" from-port="1" to-layer="56" to-port="1"/>
		<edge from-layer="56" from-port="2" to-layer="58" to-port="0"/>
		<edge from-layer="57" from-port="1" to-layer="58" to-port="1"/>
		<edge from-layer="58" from-port="2" to-layer="59" to-port="0"/>
	</edges>
	<meta_data>
		<MO_version value=""/>
		<cli_parameters>
			<batch value="1"/>
			<blobs_as_inputs value="True"/>
			<data_type value="float"/>
			<disable_nhwc_to_nchw value="False"/>
			<disable_resnet_optimization value="False"/>
			<disable_weights_compression value="False"/>
			<enable_concat_optimization value="False"/>
			<extensions value="DIR"/>
			<framework value="tf"/>
			<freeze_placeholder_with_value value="{}"/>
			<generate_deprecated_IR_V2 value="False"/>
			<generate_deprecated_IR_V7 value="False"/>
			<generate_experimental_IR_V10 value="True"/>
			<input_model value="DIR\model.pb"/>
			<input_model_is_text value="False"/>
			<keep_quantize_ops_in_IR value="True"/>
			<keep_shape_ops value="False"/>
			<log_level value="DEBUG"/>
			<mean_scale_values value="{}"/>
			<mean_values value="()"/>
			<model_name value="model"/>
			<move_to_preprocess value="False"/>
			<output_dir value="DIR"/>
			<placeholder_data_types value="{}"/>
			<progress value="False"/>
			<reverse_input_channels value="False"/>
			<scale_values value="()"/>
			<silent value="False"/>
			<stream_output value="False"/>
			<unset unset_cli_parameters="disable_fusing, disable_gfusing, finegrain_fusing, input, input_checkpoint, input_meta_graph, input_shape, output, placeholder_shapes, saved_model_dir, saved_model_tags, scale, tensorboard_logdir, tensorflow_custom_layer_libraries, tensorflow_custom_operations_config_update, tensorflow_object_detection_api_pipeline_config, tensorflow_use_custom_operations_config, transformations_config"/>
		</cli_parameters>
	</meta_data>
</net>
